models/best_transformer_model.pth (torch, 118834 bytes, 39 tensors)

input_layer.weight f4 [32, 7]
00000000: 52cf 93be 6633 0c3e 0438 a3be e8ab 50be
00000010: 737d 3bbe a5c8 c33d e7c2 dcbd c540 833e
00000020: f59b 99be e3ff 17be f828 5cbe ea7d 863e
00000030: 3deb fb3d fbc3 1c3e 0017 813e 0efd ecbc
00000040: 8de9 84bd 7f7c ed3d 3dca 903d 6a01 84be
00000050: 830e b1be 6b03 fcbd d1d0 813e ed06 47be
00000060: e7de e1bd 1dd3 89be dd87 c13e 235c 6b3d
00000070: 5b7d a7be a0dd 86be d504 a73e f2d3 2f3d
00000080: 0572 963d c556 cc3d edf6 bdbe d0bd 1ebe
00000090: cb7f a1be 5085 5ebe e3f7 65be ce75 133e
000000a0: 1f12 7cbe 9026 b8be cff7 6e3c d1eb bebc
000000b0: 46d9 8fbe 4ad1 d6bc 457c 81bd 4545 51be
000000c0: be74 b93e f5e1 38be 23d0 a4be 2fda 2b3e
000000d0: bb57 3b3e 169c 9ebe 261b 153e ec69 73bd
000000e0: 4389 103d 125c bfbd 82b5 813e 0e68 063e
000000f0: cdf3 f3bd 3eb9 833e 68e4 79bd 250d 193e
00000100: c58d a83e 1b1f 093e bd36 4cbe 5a3a 01be
00000110: f495 b53e df7d 61bd 51fb b5bd 9a97 893e
00000120: 5c05 bd3e 6013 a63c ea80 b9be 597e 003e
00000130: 31be 713c c6b4 58be add8 afbe 1ed3 96be
00000140: d95f 903e 9c10 ebbd f49e 8b3e 8c9d 51be
00000150: 573e 073e 88df b73e e31c 593e 729b e33c
00000160: 859c 01be 2140 0abe 32c8 54be a873 693e
00000170: 706f 8e3e f3c1 b0be bc72 493e 1cc6 6b3e
00000180: 8ea3 a73e 6745 2bbd 677a b7be c9d2 26be
00000190: 4d7d b93e dcf5 fabd 70e1 83be 2cb9 223e
000001a0: 3143 9cbe dcd2 c9bd 7b98 393e cd10 98be
000001b0: f270 bc3e e749 2a3d 1b03 00be 6102 1cbe
000001c0: d590 06be 1856 77be 7a25 153e 9e5e 34be
000001d0: c102 523b 3fd1 6ebe 2822 b73e 459e 58bc
000001e0: 06f2 8a3e 33f2 8c3d c20b 0c3e c0ea 793a
000001f0: ad53 ccbd 7c29 7cbd f6aa 47be 63c1 143d
00000200: fa7f 9e3e 4b2e 833d 049d a83e db27 a5be
00000210: 72e4 90bd f317 ba3e a782 363e b05e 20be
00000220: 5592 94be b114 c4bd 20a8 acbe 49bd 503d
00000230: 73ed 82be f5de 0b3e 7acf 12be 59d4 493d
00000240: 43a0 e3bd 3a83 003e 33ba 8c3d 13b9 02be
00000250: 3db8 483d 1dd6 813e 68ed b9be 7153 6f3e
00000260: 3ace 85bd d44f 283e 6ab8 a3bc c7e9 64bd
00000270: c559 1cbd 6b9e a73e 18e8 67be 3e15 24bd
00000280: fe92 9f3e b508 b6be 9d50 95be 3138 6dbe
00000290: 6003 7f3e fd84 b4be f6f8 32be ff23 75be
000002a0: a569 e2bc 78b6 6bbe adc0 ab3e 9926 c03e
000002b0: 2f80 b4be c034 95be 0149 3d3e 645f 17be
000002c0: f9b5 1b3e a6bd 753b ff2e 01be 6d3f 06be
000002d0: 5088 673e d3e4 91be 0f54 bfbe 9910 8bbe
000002e0: a2bb 353e 8f26 82be ddaa abbe 3236 ad3e
000002f0: e69a 76be 559f da3d 7aa8 e2bd 97d3 90be
00000300: fa7b ddbc e7d6 78be 5db7 84bd 09de 9ebe
00000310: 5ce8 a73e 92e8 02be 6202 3bbe 9834 e93c
00000320: 9fc7 2dbe 84ab 313e c22c b3be 17e7 023e
00000330: 3569 ac3e 4d62 953d 0f79 58be 6a05 5a3d
00000340: 4833 a9bd 81a9 a9be 4ab0 e63c e009 a43e
00000350: c947 8d3e 7c6e 10bd eaf9 5b3d 24ef c03e
00000360: 672c 85be 23a4 663d b5fe 98bd d55d 5d3d
00000370: f305 073c 4602 42bd ae0d 3c3e 9661 c23d
-0.2886911 0.13691482 -0.31878674 -0.20378077 -0.18309574 0.09559754 -0.10779362 0.25635353
-0.30001798 -0.14843707 -0.21500003 0.2626794 0.123007275 0.15309136 0.2521286 -0.02892926
-0.06489859 0.11596011 0.07069824 -0.2578233 -0.34581384 -0.123053394 0.25354627 -0.19436236
-0.110288434 -0.2691888 0.37798968 0.057460915 -0.32712826 -0.2634096 0.32620874 0.042926736
0.07345966 0.099774875 -0.37102452 -0.15502095 -0.3154281 -0.21730542 -0.22457843 0.14400408
-0.24616288 -0.3596692 0.014585449 -0.023305805 -0.28095454 -0.026222844 -0.06322531 -0.2043658
0.3622188 -0.18054946 -0.32190046 0.16782449 0.18295185 -0.3097846 0.14561138 -0.059427187
0.035287153 -0.09343733 0.25333792 0.13125631 -0.11911736 0.25727266 -0.06100884 0.1494642
0.32920662 0.13390772 -0.19942756 -0.12619916 0.35465968 -0.05505168 -0.088858254 0.26873475
0.3691815 0.02027291 -0.36231166 0.12548198 0.014754818 -0.2116271 -0.34344998 -0.29457945
0.28198126 -0.11477777 0.2726971 -0.20470256 0.13207375 0.35912728 0.21202426 0.027784083
-0.12657364 -0.13501026 -0.20779493 0.22798026 0.27819395 -0.34522972 0.19672674 0.23024791
0.3274197 -0.041814234 -0.35835573 -0.16291346 0.3622841 -0.12253925 -0.25757933 0.1589095
-0.30520013 -0.09854671 0.18124573 -0.29700318 0.3680492 0.041574385 -0.12501185 -0.15235282
-0.13141187 -0.24153936 0.14565077 -0.17614219 0.0032045098 -0.23322009 0.35768247 -0.013221328
0.27137774 0.06882133 0.1367636 0.00095335767 -0.099768974 -0.061563 -0.1949881 0.03631724
0.30957013 0.06405314 0.32932293 -0.3225697 -0.070748225 0.36346397 0.17823277 -0.1566112
-0.29017892 -0.09574259 -0.3372202 0.050961766 -0.25571784 0.1365927 -0.14336959 0.049274776
-0.11114552 0.12550059 0.06871452 -0.12765913 0.04900383 0.25358668 -0.3631394 0.23371674
-0.06533475 0.16436702 -0.019985396 -0.05588701 -0.03817155 0.3273805 -0.2264713 -0.04005932
0.31166834 -0.35553518 -0.29163066 -0.23165967 0.24903631 -0.35257712 -0.17477784 -0.23939513
-0.027638266 -0.23018825 0.33545437 0.37529448 -0.35254046 -0.29141808 0.1848488 -0.14782482
0.15206136 0.0037497072 -0.12615584 -0.13110133 0.22610593 -0.28494892 -0.3736882 -0.271611
0.17747357 -0.25420043 -0.33528796 0.3383041 -0.24082527 0.106749214 -0.110672906 -0.2828643
-0.027036656 -0.24300729 -0.06480286 -0.31028774 0.32794464 -0.12784031 -0.18262628 0.028467461
-0.1697068 0.17350584 -0.34995085 0.12783466 0.33674017 0.0729414 -0.2113993 0.05322782
-0.08261734 -0.33137134 0.028160233 0.32038784 0.2759383 -0.035261616 0.053705133 0.3768245
-0.2601044 0.056308877 -0.074704565 0.054044563 0.0082411645 -0.04736545 0.18364593 0.09491269

input_layer.bias f4 [32]
00000000: 9d11 5cbe 3cce ab3e 15dd 36be 2066 b2be
00000010: 6bf4 ddbd 002f 273e aa80 a33e f200 b1bd
00000020: 4023 c7bd afe1 f53c 7050 373d 8c0b 47bc
00000030: 2b7a fbbd 4f1b 44bd 8fcf 263d 7c39 bbbe
00000040: 49e2 013e 6d96 8abe cb9f 253e a172 b63d
00000050: 07aa 0d3e 926b 6fbb de8f abbd 8e4c 863d
00000060: 6404 f73d eac2 f6bd f351 c13d 19c5 3bbe
00000070: 2cc1 143e 350b c53d 9b28 d4bd cc61 9d3c
-0.21491094 0.33555782 -0.17857774 -0.3484354 -0.10837635 0.16326523 0.319341 -0.086427584
-0.0972352 0.03001484 0.044754446 -0.012148749 -0.12279161 -0.047877606 0.040725287 -0.36567295
0.12683977 -0.2706789 0.16174237 0.089085825 0.13834392 -0.0036532623 -0.0837705 0.065575704
0.12061384 -0.12048896 0.09439459 -0.18336906 0.14526814 0.09621278 -0.103593074 0.019211672

encoder_layers.self_attn.in_proj_weight f4 [96, 32]
00000000: e200 d03d 8027 533b 6883 18be e8eb ddbc
00000010: 32c1 0abe ca6a 28be c009 32bc 03d4 4e3e
00000020: 1006 883c 008f 59bb 7743 253e 6319 193e
00000030: 528e ee3d 4e8d d43d 74bd 7a3d 885f a3bd
00000040: 52c7 dcbd 58b0 d83c ed06 103e a8ea 16be
00000050: 4045 26bb 7059 35bc 9afa eb3d 3cc2 21be
00000060: d22a 5bbe d011 bcbc 75e6 00be 8c8f 4dbe
00000070: f52e 083e 709d 7a3c 7888 63bd 3cd2 12bd
00000080: e6bd 26be 0e7f d73d ea91 8b3d 6024 f93c
00000090: 4c3f 3ebe c073 34bc 78d7 87bc d2b6 07be
000000a0: 50c6 5bbe ca8e e93d c89f 4ebd 6ce2 763d
000000b0: 702c c5bc 799a f0bd 3076 cc3c d049 7cbc
000000c0: d0c9 9fbd 88c8 fa3c 936b 2d3e 82c4 953d
000000d0: 2c53 1a3d 10a7 ce3c 9fba 2b3e a0da bcbd
000000e0: e066 d73b f2e5 cc3d 0708 073e cee1 bc3d
000000f0: ed3d 153e 6889 a4bd 306b 9cbd 30ed 25bd
00000100: ea13 fe3d b358 293e f6d2 d63d fab7 dc3d
00000110: 74b9 aebd ae43 b63d 110c 343e 10af 10bc
00000120: 88a2 2ebd 054e 13be 2cc1 033d eb48 303e
00000130: 486c 7ebd e0cf d73c ad3a 323e 0417 2d3d
00000140: 2a5b 99bd 0c0a 393d 13ce 383e 5483 91bd
00000150: 19ae 483e 151a 193e de45 bc3d 2f0f 2b3e
00000160: a21a c13d 7a1c 2cbe 8040 dfbb 00e7 10bb
00000170: 181a 43bd 0a5e bcbd ade6 52be c676 dd3d
00000180: 324b c93d 868f bf3d d91f 523e c095 0e3c
00000190: 1fda 3a3e 148c 27bd 7f81 013e 40f8 473c
000001a0: 85d9 113e 10ba f4bd 85f0 1f3e 86c5 a43d
000001b0: c0e2 82bb 0ad8 2abe 5119 e4bd 9231 92bd
000001c0: e2d2 31be e61d 05be 8e87 85bd 2401 323d
000001d0: 80a7 83bd cec1 b9bd a1a7 523e 0049 91ba
000001e0: 30c2 aa3c dfff 5a3e 2481 71bd 49a3 e1bd
000001f0: 57bd 363e 90e2 c93c 92c7 af3d 570d 523e
00000200: 2ad6 9bbd 681e 4bbd 964b 3fbe f2d2 34be
00000210: b2e3 ff3d 39b5 393e 09ac 253e 16fa 9bbd
00000220: 40b8 62bc f438 6f3d 1ef1 21be e0d3 2a3c
00000230: f4e1 163d 0008 d93a 3125 cbbd 2e01 ac3d
00000240: 333e 393e 6047 533c 30cf 9dbd 34bf 4a3d
00000250: 2c0f 533d d83e cdbd 4179 443e c1e1 04be
00000260: 6ea6 0fbe 71bf 1d3e c395 2fbe 4a6b b23d
00000270: 9536 1dbe b653 fcbd d09c fbbc 5440 e4bd
00000280: 00a4 5abb e038 073d f472 0ebe 57b5 50be
00000290: 5bf9 37be 4008 44be 07e9 503e 34f6 2e3d
000002a0: d825 cdbc 1941 563e 9262 a63d f4c0 78bd
000002b0: cb79 0cbe e349 3bbe 39b3 583e 9045 6f3c
000002c0: 4aa5 a23d 52b8 52be 6040 443c b4cc 7e3d
000002d0: bef3 9b3d 9ee0 be3d 3481 693d a232 a2bd
000002e0: d68d ce3d e08b e7bc c6b1 22be 6858 d93c
000002f0: f833 a53c 8eca cfbd 4e5b bd3d e1bc 0ebe
00000300: c345 16be cedc ee3d ba02 fd3d 8803 2cbd
00000310: f6e7 f73d 1b02 5b3e 4919 2bbe aeec e03d
00000320: d9af 0ebe acd9 30bd 572e 173e b90f 143e
00000330: f22d ce3d 76b0 33be dd01 473e 8893 b5bd
00000340: 0031 6cbb c6df d03d 48f3 d1bc 69b5 3f3e
00000350: 62f7 39be 20a6 ad3c 1664 b9bd f064 04be
00000360: d057 0dbc 3563 2e3e 292f 243e f43c 2fbe
00000370: 0c5c 2dbe 15cf 003e ce27 4ebe 84ef 7d3d
00000380: 0eea 8d3d fd04 343e c0cc ccbb e72b 16be
00000390: c8e2 23be cc8d 7cbd a083 3fbc 1afe 04be
000003a0: 9dd1 113e 648f 3c3d 368b a43d 8df3 2c3e
000003b0: dc03 20be d685 e23d ea03 99bd a208 b43d
000003c0: 031b 0d3e f302 233e 4ef3 03be e404 37bd
000003d0: 4032 c93b c2e6 06be 3b2a 5a3e 18f7 e2bc
000003e0: 1677 ee3d 2483 1dbe bee2 85bd c63b db3d
000003f0: 46ba 59be 8874 59be 9c59 a4bd 00f5 1d3c
0.101564184 0.0032219589 -0.14893878 -0.027090028 -0.1355026 -0.16446987 -0.010866582 0.20198064
0.016604453 -0.0033196807 0.16139017 0.1495109 0.11648239 0.10378514 0.061215833 -0.079772055
-0.10780205 0.026451275 0.14065142 -0.14737952 -0.0025370866 -0.011068687 0.11522408 -0.15796751
-0.21403053 -0.022957712 -0.12587912 -0.2007429 0.13299163 0.015296325 -0.05555007 -0.035845026
-0.16283378 0.10522281 0.0681494 0.030412853 -0.18578833 -0.011013925 -0.016582236 -0.13253334
-0.21462369 0.11404188 -0.050445348 0.060274526 -0.024069041 -0.11748213 0.0249587 -0.015398458
-0.078021646 0.030613199 0.16935568 0.073128715 0.037676975 0.025226146 0.16770409 -0.09221387
0.006573543 0.10004796 0.13186656 0.09222756 0.14574404 -0.08034021 -0.07637632 -0.040509403
0.12406142 0.16537742 0.10489456 0.10777278 -0.08531466 0.088996276 0.17582728 -0.008830801
-0.04263547 -0.14385231 0.032166645 0.17215316 -0.062114984 0.02634424 0.17405196 0.042258278
-0.07488091 0.045175597 0.18047361 -0.07105127 0.19597663 0.14951356 0.091930136 0.16705011
0.09428908 -0.16807738 -0.006813109 -0.0022110343 -0.047632307 -0.09197624 -0.20595808 0.1081367
0.098287955 0.09353547 0.20519961 0.008702695 0.18247269 -0.040905073 0.12647055 0.0122051835
0.14243133 -0.11949551 0.15619095 0.08045487 -0.003994316 -0.16683975 -0.11137641 -0.07138361
-0.17365602 -0.12999687 -0.06519996 0.04345812 -0.064284325 -0.090701684 0.20571758 -0.0011084378
0.020844549 0.2138667 -0.05896105 -0.11017472 0.17845665 0.024644166 0.08582987 0.20512901
-0.07609208 -0.049589545 -0.18681177 -0.17658594 0.12494601 0.18135537 0.16178907 -0.076160595
-0.013837874 0.058403924 -0.15814635 0.0104264915 0.03683658 0.001655817 -0.09919203 0.083986625
0.18090133 0.012895435 -0.077055335 0.04949875 0.05152814 -0.10021752 0.1918688 -0.12976743
-0.14028332 0.1540506 -0.17146973 0.0871187 -0.15352853 -0.12320654 -0.030714422 -0.11145082
-0.0033361912 0.033013225 -0.13911039 -0.20381676 -0.17966215 -0.19143772 0.20401393 0.042715266
-0.02504246 0.2092327 0.081242695 -0.06073089 -0.13718335 -0.18289904 0.21162118 0.014603987
0.07941683 -0.20578125 0.011978239 0.06220694 0.076148495 0.09320186 0.057007983 -0.07919814
0.10085647 -0.02826494 -0.15888128 0.026531413 0.020166382 -0.10146056 0.092459306 -0.13939239
-0.1467505 0.11663209 0.12354036 -0.041995555 0.1210479 0.21387522 -0.16708864 0.10982643
-0.13934268 -0.043176338 0.14763771 0.14459123 0.10067357 -0.17547783 0.19434305 -0.0886603
-0.0036039948 0.101989314 -0.0256287 0.18721546 -0.18160775 0.021197379 -0.09052293 -0.1292913
-0.008626893 0.17030032 0.16033615 -0.17113096 -0.16929644 0.12578996 -0.20132372 0.061995998
0.06929408 0.17580028 -0.006249994 -0.14665185 -0.16004479 -0.061658666 -0.011689097 -0.12987557
0.14240117 0.046035185 0.08034365 0.16889782 -0.15626472 0.110606834 -0.0747145 0.08790709
0.13779835 0.15919094 -0.12885782 -0.0446824 0.0061400235 -0.13173965 0.21305172 -0.027705714
0.116438076 -0.15382057 -0.06537388 0.1070476 -0.21262464 -0.2123586 -0.08024904 0.009640932

encoder_layers.self_attn.in_proj_bias f4 [96]
00000000: 0000 0000 0000 0000 0000 0000 0000 0000
00000010: 0000 0000 0000 0000 0000 0000 0000 0000
00000020: 0000 0000 0000 0000 0000 0000 0000 0000
00000030: 0000 0000 0000 0000 0000 0000 0000 0000
00000040: 0000 0000 0000 0000 0000 0000 0000 0000
00000050: 0000 0000 0000 0000 0000 0000 0000 0000
00000060: 0000 0000 0000 0000 0000 0000 0000 0000
00000070: 0000 0000 0000 0000 0000 0000 0000 0000
00000080: 0000 0000 0000 0000 0000 0000 0000 0000
00000090: 0000 0000 0000 0000 0000 0000 0000 0000
000000a0: 0000 0000 0000 0000 0000 0000 0000 0000
000000b0: 0000 0000 0000 0000 0000 0000 0000 0000
000000c0: 0000 0000 0000 0000 0000 0000 0000 0000
000000d0: 0000 0000 0000 0000 0000 0000 0000 0000
000000e0: 0000 0000 0000 0000 0000 0000 0000 0000
000000f0: 0000 0000 0000 0000 0000 0000 0000 0000
00000100: 0000 0000 0000 0000 0000 0000 0000 0000
00000110: 0000 0000 0000 0000 0000 0000 0000 0000
00000120: 0000 0000 0000 0000 0000 0000 0000 0000
00000130: 0000 0000 0000 0000 0000 0000 0000 0000
00000140: 0000 0000 0000 0000 0000 0000 0000 0000
00000150: 0000 0000 0000 0000 0000 0000 0000 0000
00000160: 0000 0000 0000 0000 0000 0000 0000 0000
00000170: 0000 0000 0000 0000 0000 0000 0000 0000
0.0 0.0 0.0 0.0 0.0 0.0 0.0 0.0
0.0 0.0 0.0 0.0 0.0 0.0 0.0 0.0
0.0 0.0 0.0 0.0 0.0 0.0 0.0 0.0
0.0 0.0 0.0 0.0 0.0 0.0 0.0 0.0
0.0 0.0 0.0 0.0 0.0 0.0 0.0 0.0
0.0 0.0 0.0 0.0 0.0 0.0 0.0 0.0
0.0 0.0 0.0 0.0 0.0 0.0 0.0 0.0
0.0 0.0 0.0 0.0 0.0 0.0 0.0 0.0
0.0 0.0 0.0 0.0 0.0 0.0 0.0 0.0
0.0 0.0 0.0 0.0 0.0 0.0 0.0 0.0
0.0 0.0 0.0 0.0 0.0 0.0 0.0 0.0
0.0 0.0 0.0 0.0 0.0 0.0 0.0 0.0

encoder_layers.self_attn.out_proj.weight f4 [32, 32]
00000000: 367a a73d 4e76 2bbe 9c3c 08be 0ba9 1b3e
00000010: 23f7 d8bd a48b 73bd b79e 99bd 0b95 1b3e
00000020: 90e5 debc a2b2 c53d cdf0 313e d0c0 163c
00000030: 99a8 05be 4097 17be 872d cbbd 36e3 1dbe
00000040: d85b afbd 20f1 d33b 99ad dabd fdc2 143e
00000050: f53e 1d3e 6626 fd3d a39c 003e b8a9 d83c
00000060: 321b fb3d ac09 033d 0474 27bd b2cc ff3d
00000070: 1169 2c3e 0891 f5bd 32d4 33be 7434 6c3d
00000080: 7037 15bc bee7 2cbe b07d 1d3d 7099 ab3c
00000090: 279e 323e bb70 163e da16 a03d cbe3 debd
000000a0: 0ca3 0fbd aaf5 f93d 6d41 053e a49d b5bd
000000b0: 4082 c53c 28f6 90bc 60de ddbb 1cc1 6fbd
000000c0: 0ba7 bbbd c252 c5bd f222 d93d c00d 553d
000000d0: 4e1f cf3d 7e1f 2fbe 5b64 0e3e bafe 30be
000000e0: f05d bfbc 8634 933d 1a9b 07be 8fe9 103e
000000f0: 4bc6 9dbd 9be1 21be 4522 193e 2cef 543d
00000100: fb4c 1d3e 31c8 1b3e e1c5 113e 7dc2 cebd
00000110: aed5 b13d 0540 0dbe 686c f33c 6f20 153e
00000120: 8235 ad3d 7522 2bbe 00e9 c8bd d137 033e
00000130: f481 833d 9a7d 9bbd 90ec f83c a03b 343c
00000140: 9014 c93c 977b 2cbe 10b1 083c df15 90bd
00000150: 00a6 2dba b2fb da3d da33 8bbd 10a9 343d
00000160: 0b8b 133e 0889 ce3c 63f2 16be 206c 74bc
00000170: b044 6c3c e64e 873d a824 5a3d cec4 dc3d
00000180: 9748 2d3e 00c2 08bc f0d0 973c 9529 163e
00000190: b959 16be 7869 c13c 75ca 2ebe d846 edbc
000001a0: b873 ecbd 6004 293d cbbc debd 60a4 57bc
000001b0: fa13 f0bd 7c00 2e3d e82a b93c 5e60 9f3d
000001c0: 2327 31be 60c1 9e3b adf4 133e bf29 093e
000001d0: 8c14 9cbd 4a3b 27be 2189 183e dfe2 1c3e
000001e0: aa60 f8bd ca54 863d 1817 143d 2612 ce3d
000001f0: 8a9f f73d 8139 313e 2968 003e ee3c 76bd
00000200: 89f8 043e e02c c1bc 6e45 f13d 6414 09bd
00000210: 88b3 113d efee 33be d225 bfbd 0401 07be
00000220: e413 30be c0a9 7abc 1de5 09be fa2c 9cbd
00000230: 6b02 283e 788b 3b3d 80f1 ea3b 78f7 8fbc
00000240: 8aff 9f3d bc8d 7f3d e9f2 08be 7083 82bd
00000250: 0076 67bd 059e 97bd 5160 1a3e 5045 fbbd
00000260: 61a7 343e 48b0 61bd 4244 11be 83e2 1d3e
00000270: fc3f 1dbe 0cbb 7dbd 1923 233e 501d b9bd
00000280: ccde 4c3d eb09 093e 1a9c a13d a81c 8dbc
00000290: 2a3a febd 60e9 c63c 64c8 1bbe a024 d73c
000002a0: 09e5 d7bd 6027 04bd 2657 c43d 3038 29bd
000002b0: f9e9 133e 4acd ca3d 74a5 043d aed5 ba3d
000002c0: 45cd 0c3e 5443 b7bd 4198 25be 6869 8bbc
000002d0: d255 f5bd 1d63 01be 1664 b03d bc7e c0bd
000002e0: 48d9 1b3d 3f91 243e d407 a5bd 64a7 7f3d
000002f0: b745 21be 7bfe 33be c061 e3bb 740f 2a3d
00000300: 6c2c 51bd 93c3 2dbe feb2 e63d 5895 48bd
00000310: 30da 623d 1f4b 023e 3c50 0abd a0db 453c
00000320: a3bf f2bd c5dd 293e 2663 fb3d 581a 963c
00000330: 4023 22bc 1a62 9a3d 1707 b1bd 00ce 5c3a
00000340: b2e7 04be 99db 1d3e 7aae bd3d 384a b2bd
00000350: a3e9 2fbe ef82 253e 3b97 0e3e f08e 0d3d
00000360: fe27 f63d 1839 0dbd ad7a 2e3e ca82 e23d
00000370: e192 0e3e f12c d7bd 3537 2e3e c34b 04be
00000380: e930 343e 823d 93bd 9ac5 f53d ff2b 21be
00000390: bf90 1f3e 4f2a 1bbe 8143 093e a135 203e
000003a0: 980a e03c db53 98bd 11a1 2f3e 5e49 ad3d
000003b0: 4e5e f5bd 534f 28be f2b3 b3bd 0ea6 c53d
000003c0: b097 e9bd 3ec0 1cbe b02c 8b3c 5adb c23d
000003d0: 3e8a 1ebe 631d d5bd cc40 00be 9af5 14be
000003e0: 0fee 123e 9c57 653d 8bf3 153e c01d 273d
000003f0: b878 633d f002 043d 7a49 a13d 40b6 93bc
0.08177607 -0.16744348 -0.1330437 0.15201204 -0.105940126 -0.059459344 -0.075009756 0.15193574
-0.027209073 0.09653212 0.17377014 0.0092012435 -0.13052596 -0.14803791 -0.09920793 -0.15418705
-0.0856244 0.0064679533 -0.106776424 0.14527507 0.15356047 0.123608395 0.12559752 0.026448116
0.122610465 0.031991646 -0.040882125 0.124902144 0.16836955 -0.11990553 -0.17561415 0.05766721
-0.009107456 -0.16885278 0.038449943 0.020947188 0.17443143 0.14691441 0.078168586 -0.10883292
-0.035067603 0.1220506 0.13013239 -0.08867958 0.02410996 -0.017695501 -0.006770894 -0.058533773
-0.0916272 -0.096349254 0.106023684 0.052015066 0.10113393 -0.17101857 0.1390547 -0.1728467
-0.023360223 0.071877524 -0.1324276 0.14151596 -0.07703837 -0.15808718 0.14954479 0.051985905
0.15361397 0.15213086 0.14235641 -0.100956894 0.08683334 -0.13793953 0.029714778 0.14563154
0.084574714 -0.16712363 -0.09810066 0.12814261 0.06421271 -0.07592316 0.03038624 0.011000544
0.024545938 -0.16844021 0.008342996 -0.070354216 -0.0006624162 0.10692538 -0.06796999 0.044106543
0.1440851 0.025211826 -0.147409 -0.014918357 0.014420673 0.066068456 0.053257614 0.10779725
0.16922222 -0.008347034 0.018532246 0.146643 -0.14682664 0.023609862 -0.17069419 -0.028964445
-0.11545509 0.041263938 -0.10875853 -0.013161749 -0.1172256 0.04248093 0.022603467 0.077820525
-0.17300086 0.0048448294 0.14448805 0.13394831 -0.076211065 -0.1633121 0.1489606 0.1532092
-0.12127812 0.06559141 0.036154836 0.10062055 0.120909765 0.17307092 0.12539734 -0.0601167
0.12985434 -0.023580968 0.11780821 -0.03346671 0.035571605 -0.17571615 -0.093333855 -0.13183981
-0.17195088 -0.015299261 -0.13466306 -0.07625766 0.16407172 0.045787305 0.0071699023 -0.017574057
0.07812412 0.062391028 -0.13373913 -0.06372726 -0.056509018 -0.07403187 0.15075804 -0.1226908
0.17641975 -0.055099756 -0.14186195 0.15418439 -0.1535644 -0.06194596 0.15931357 -0.09038794
0.050017163 0.1338269 0.07891102 -0.017225578 -0.12413438 0.024281204 -0.15213162 0.026262581
-0.10541732 -0.032264113 0.09586935 -0.04131335 0.14444722 0.09902437 0.03238435 0.091227874
0.13750179 -0.08948389 -0.16171362 -0.017018035 -0.119792596 -0.12635465 0.0861284 -0.09399173
0.038049012 0.16071032 -0.08058134 0.062415496 -0.1574925 -0.17577545 -0.006939143 0.041518643
-0.051067755 -0.16969137 0.11264609 -0.04897055 0.05538386 0.12723969 -0.033767924 0.012076288
-0.11852958 0.16588505 0.122747704 0.018323109 -0.0098961 0.07538243 -0.086439304 0.00084230304
-0.1297901 0.15415801 0.092617944 -0.08705562 -0.17178969 0.16163228 0.13924877 0.034560144
0.12019347 -0.034478277 0.17038985 0.11060102 0.13923217 -0.10506619 0.17013247 -0.12919526
0.17596783 -0.07189466 0.1200058 -0.1573944 0.1558256 -0.15152858 0.13404657 0.15645458
0.027348801 -0.07437869 0.17151286 0.08461259 -0.11980878 -0.1643651 -0.08774556 0.09650813
-0.11405885 -0.1530771 0.016989082 0.09514494 -0.15482423 -0.10405996 -0.12524718 -0.14546815
0.14348625 0.055991754 0.14643686 0.040799856 0.05553505 0.032229364 0.07875343 -0.01803124

encoder_layers.self_attn.out_proj.bias f4 [32]
00000000: 0000 0000 0000 0000 0000 0000 0000 0000
00000010: 0000 0000 0000 0000 0000 0000 0000 0000
00000020: 0000 0000 0000 0000 0000 0000 0000 0000
00000030: 0000 0000 0000 0000 0000 0000 0000 0000
00000040: 0000 0000 0000 0000 0000 0000 0000 0000
00000050: 0000 0000 0000 0000 0000 0000 0000 0000
00000060: 0000 0000 0000 0000 0000 0000 0000 0000
00000070: 0000 0000 0000 0000 0000 0000 0000 0000
0.0 0.0 0.0 0.0 0.0 0.0 0.0 0.0
0.0 0.0 0.0 0.0 0.0 0.0 0.0 0.0
0.0 0.0 0.0 0.0 0.0 0.0 0.0 0.0
0.0 0.0 0.0 0.0 0.0 0.0 0.0 0.0

encoder_layers.linear1.weight f4 [64, 32]
00000000: a868 c5bd e413 4f3d c229 0ebe 4c70 afbd
00000010: 2026 b1bc 806f 533d 109a 553c c311 0a3e
00000020: 57e4 1bbe 01aa 8bbd 3271 95bd 9adf febd
00000030: 8ebc ee3d 3ca5 203d 066a 5bbd 0ea5 f83d
00000040: 8123 163e 8c1e 37bd 38c0 bb3c 984d c4bd
00000050: 00d3 b23a 807a f93c b554 09be 30b6 8e3c
00000060: f069 0fbe 4b7a e4bd 1725 9cbd 4857 24bd
00000070: f0f0 1dbd 127f 963d c0d7 013b cca6 3cbd
00000080: fa24 e63d fa89 933d f85c 8fbc 543e 07be
00000090: 6a1e ae3d 542f 533d f62e 1abe f472 0dbd
000000a0: 982b 94bd b363 c8bd 1ac7 ce3d e602 9c3d
000000b0: 68b2 4f3d 6384 023e 3c0b 8e3d ef75 91bd
000000c0: 473b 01be 16f2 ed3d cc18 97bd 547a 193d
000000d0: 9024 123c 468c 883d 0e09 a73d 22ed d1bd
000000e0: 6352 d7bd e2e9 bc3d 0aaa 31be f0f0 33bc
000000f0: 8abf ba3d b6dd c4bd 5f1c b5bd 7c9b 04be
00000100: 7f18 cebd 7cab 113d 4d70 243e 90f4 29bc
00000110: 6ddd e5bd f05c b2bc c0d6 89bb ee42 c43d
00000120: 406d 0d3b 7413 2cbe d2e6 df3d ae6f ad3d
00000130: 1c86 2fbe c218 59bd d021 02be c181 1b3e
00000140: b015 69bd 2359 233e 1005 2fbe 8062 68bc
00000150: f3f6 293e b09b 97bc 0ecc da3d 2314 e8bd
00000160: f7aa d0bd 2ff4 1b3e e849 2dbe 80eb afbc
00000170: e9ad 2e3e a4fe 213d ee61 96bd 106a 9e3c
00000180: 6838 acbc 3f1d 053e 34e7 6bbd f3c6 9abd
00000190: 6678 d23d b69b 82bd 05eb 093e f171 043e
000001a0: bd27 2dbe bd6a 2e3e 80ac 7a3d fdb9 e6bd
000001b0: 5977 19be 724d 893d b2ed cf3d d830 9e3c
000001c0: a764 ccbd 8449 1bbe 88f3 03bd 5802 643d
000001d0: d84a 21be 1a9b 06be 4d4c 09be 00c6 e83a
000001e0: 70f9 4c3d 5482 893d 4527 04be c812 02bd
000001f0: 600a 6a3c 8baa 283e d215 6ebd d9d9 0c3e
00000200: b098 b1bd 2423 6ebd 50e4 333d 7085 fbbc
00000210: fc84 c1bd 7f37 dfbd 6695 31be 8027 bf3c
00000220: c0e3 483d f471 ccbd ae60 923d 0464 c7bd
00000230: 6e8b fbbd 54d5 73bd a0b2 10bd 70be 24bc
00000240: 6a57 f53d 1ec1 ef3d fb75 1ebe 7035 933c
00000250: f010 bb3c a0e0 173d 8341 323e c0ff 2ebe
00000260: 274b 1d3e d698 19be 4325 f7bd e423 3b3d
00000270: 9ae8 b03d c4ad 07be 2f9d 02be 201f e8bb
00000280: ffe6 1ebe 1f6b 083e b862 fe3c 53d9 9ebd
00000290: ca38 af3d 4013 ee3b 7d8d 26be bb72 0d3e
000002a0: 01fa c2bd 4a33 c3bd 1c35 19be fdc1 0bbe
000002b0: d975 103e 75b0 0b3e 802d 86bd 08a1 a83c
000002c0: aeae ee3d 023a a43d 5b11 16be 21f3 8ebd
000002d0: 4e50 f8bd eb49 86bd 33bd 003e 5771 cbbd
000002e0: d80e b23c f940 02be 00a9 853a 44de 2f3d
000002f0: 18f6 453d 5049 753d 02c2 ed3d 1717 07be
00000300: 43e6 263e c86a cb3c d646 9c3d 4325 d1bd
00000310: 78f6 ea3c c198 223e 5e02 a13d 502c 0cbc
00000320: fa5c 28be 5a47 1fbe a0b7 babc a08f b83c
00000330: f209 ed3d 021e 993d ac49 273d c332 173e
00000340: d058 053c 98c3 8bbc ec04 88bd b004 5c3c
00000350: f8f5 12be fce0 f5bd e06c 1ebd fd7a 1e3e
00000360: 5c9f 203d 86ef cc3d e644 a53d 4d86 0c3e
00000370: 00a4 bbba 6133 d4bd 301d f3bc 691b 153e
00000380: f34a 2ebe ebc2 063e 2021 f63c b5b4 223e
00000390: 2e98 c23d f80b 21be f669 fa3d bc12 1cbd
000003a0: b891 33bd 86f1 fb3d 807d 2c3c fcc3 833d
000003b0: 58fb b53c 4f2d 0f3e a96b 97bd 204e b13c
000003c0: 80c4 32bc 04f3 263d b80d 323d 6cc1 a3bd
000003d0: 548e 24bd 8159 253e f050 0c3c 4852 1dbe
000003e0: b048 5abc 60b6 853b 4012 8ebb 1724 2e3e
000003f0: c361 cdbd 5e71 dc3d c546 1cbe 90ec 823d
-0.09639102 0.05055608 -0.13883117 -0.08566341 -0.021624625 0.051620007 0.01303722 0.13483338
-0.15223823 -0.06819535 -0.07296981 -0.12444992 0.11657058 0.03922008 -0.05356791 0.12140857
0.14661981 -0.044706866 0.022918805 -0.09585112 0.0013643205 0.03045392 -0.1341122 0.017420858
-0.14005256 -0.11156138 -0.07624262 -0.0401223 -0.038559854 0.073484555 0.0019812435 -0.046057507
0.112375215 0.07204051 -0.017500386 -0.1320737 0.08501895 0.051558807 -0.15056977 -0.034533456
-0.07234877 -0.09784641 0.10096569 0.0761774 0.05070725 0.12745814 0.069357365 -0.07102572
-0.12620269 0.1161844 -0.073777765 0.037470177 0.00891985 0.0666738 0.08156024 -0.102503076
-0.10513761 0.09224297 -0.17350021 -0.010982737 0.091185644 -0.096126005 -0.08843302 -0.12949938
-0.10063266 0.03556393 0.16058464 -0.01037325 -0.11223874 -0.021772832 -0.0042065084 0.09583078
0.002158001 -0.16804296 0.10932697 0.08468567 -0.17141002 -0.053002127 -0.12708211 0.15186216
-0.05690545 0.15951972 -0.17091775 -0.0141836405 0.1659811 -0.018506855 0.106834516 -0.11331966
-0.10188859 0.15229867 -0.16922724 -0.0214746 0.17058529 0.039549485 -0.07342897 0.019337684
-0.02102299 0.12999438 -0.05759354 -0.07557478 0.102768704 -0.06377356 0.13468559 0.1293409
-0.1690969 0.17032905 0.061199665 -0.11265943 -0.14986934 0.06704225 0.10152759 0.0193104
-0.099801354 -0.15164763 -0.03221467 0.055666298 -0.15751207 -0.13145104 -0.13408013 0.0017759204
0.05004257 0.06714311 -0.12905605 -0.031756192 0.0142847 0.16471307 -0.05812628 0.13754977
-0.08671701 -0.05813898 0.043918908 -0.030703276 -0.09449193 -0.10899257 -0.17342147 0.023334265
0.049045324 -0.09982672 0.071473464 -0.09735873 -0.122824535 -0.059529617 -0.0353266 -0.010055169
0.119795635 0.11706756 -0.15474693 0.017969817 0.022835225 0.037079453 0.17407803 -0.17089748
0.153607 -0.14999709 -0.12067654 0.045688525 0.08638115 -0.1324988 -0.12755273 -0.0070837885
-0.15517806 0.13322113 0.031052932 -0.07756295 0.085557535 0.0072654784 -0.16264911 0.13813297
-0.09520341 -0.09531267 -0.14961666 -0.1364822 0.14107455 0.13641532 -0.06551647 0.020584598
0.11654411 0.080188766 -0.14655058 -0.06979967 -0.12124692 -0.065570675 0.12572174 -0.09933727
0.021735594 -0.12720098 0.0010197461 0.04293658 0.048330396 0.05988437 0.1160927 -0.13192402
0.16298775 0.02483119 0.076306984 -0.10212185 0.028681979 0.15878583 0.0786178 -0.008555487
-0.16441718 -0.15554562 -0.022792637 0.022529423 0.115741625 0.07476427 0.040841743 0.14765458
0.00813885 -0.01706104 -0.06641564 0.013428852 -0.14351642 -0.12005803 -0.03867805 0.15476604
0.039214477 0.10006623 0.08069782 0.13723107 -0.0014315844 -0.10361362 -0.029677004 0.14561237
-0.17020778 0.13160293 0.030045092 0.15889247 0.09501682 -0.15727222 0.12227242 -0.038103804
-0.04384014 0.12301926 0.010527968 0.064338654 0.022214577 0.13982128 -0.073935814 0.021643698
-0.010911107 0.0407591 0.043470114 -0.07995877 -0.040174797 0.16147424 0.008564219 -0.15363419
-0.013322994 0.0040805787 -0.0043356717 0.17005955 -0.10028412 0.107638106 -0.15261371 0.06392777

encoder_layers.linear1.bias f4 [64]
00000000: 7fe9 203e 8b53 133e 9453 c2bd a03d 4a3d
00000010: 2ee2 f5bd b84e 77bd 4190 cbbd 8a9d c13d
00000020: 894b 2a3e 53c7 c6bd 2050 7cbd b8d3 6bbd
00000030: 3460 0c3d 0c53 52bd f083 853d 5035 753c
00000040: 4860 c3bd 71fc 86bd ae52 ce3d 706d cd3c
00000050: b00e d63c 2e59 f03d 281d 47bd 5c48 883d
00000060: 7a23 80bd 6c2f 843d 66dc cf3d fa0b fabd
00000070: 1909 20be 7dd5 c2bd 6869 d33c 7c41 01bd
00000080: 28b1 0dbe 523e f7bd 20a2 8dbc ed6f edbd
00000090: baa0 a73d 5f3c 303e 6012 3fbc b55b 06be
000000a0: 635d 113e 2614 28be 1c34 aebd e0f7 38bc
000000b0: 377e 83bd 1401 883d 81dd 95bd 7d20 11be
000000c0: 544c 1cbd ca21 86bd 7118 233e 7c3a 053d
000000d0: 609c 1bbc d65b 63bd 49be fdbd 4803 f5bc
000000e0: e028 adbb 8846 7a3d 3e1d c03d 4ba0 8bbd
000000f0: 2590 1e3e b2c3 eb3d 4704 d2bd 768c a13d
0.15714072 0.14387338 -0.094885975 0.049375176 -0.12006031 -0.060377806 -0.099396236 0.09453876
0.16630377 -0.09705987 -0.06159985 -0.057574958 0.034271434 -0.05134873 0.06519306 0.014966324
-0.095398486 -0.06591118 0.10074364 0.025076598 0.02613005 0.1173576 -0.04861179 0.066544265
-0.062567666 0.064543575 0.101494595 -0.122093156 -0.1562847 -0.09513376 0.025807098 -0.03155659
-0.13837111 -0.120724335 -0.017289221 -0.11593614 0.08184953 0.1721053 -0.011662096 -0.13120921
0.1419578 -0.16413936 -0.08506033 -0.011289567 -0.06420558 0.06640831 -0.07317639 -0.1417255
-0.03815873 -0.065494135 0.15927292 0.03252648 -0.009497732 -0.055507503 -0.1238981 -0.029908791
-0.0052844137 0.06110242 0.093805775 -0.06817683 0.15484674 0.11511935 -0.10254722 0.07888119

encoder_layers.linear2.weight f4 [32, 64]
00000000: b0d8 db3d 8c83 1d3d 1038 4bbd deea debd
00000010: 5033 cfbc ba05 a73d 2618 ee3d 4e83 c93d
00000020: 56b9 c8bd e831 3bbd 48eb c1bc 4afe f8bd
00000030: 52ec c13d 2876 0bbd 70f9 60bc 344d 97bd
00000040: 682d 143d c0b1 5abd 3a60 c73d 2079 d33d
00000050: 8047 2a3b f083 9f3d 8041 dd3a eccd cbbd
00000060: 5abe a03d 58dc 1dbd 7e31 b93d 2810 f33d
00000070: dc04 e9bd ec0c 603d fe23 a63d c015 023d
00000080: 5c0a 4b3d 1805 1bbd 4e6e c33d 868d bcbd
00000090: 4058 813d 58fd 8bbd fee0 c4bd fc11 97bd
000000a0: 6c2d 6d3d 00a4 28b9 8031 1d3d b010 43bd
000000b0: c825 82bc 70ec d63c f816 ffbc 78b8 f43c
000000c0: 3a35 b4bd 48b6 1e3d f41e 4d3d e432 d13d
000000d0: 7cf8 313d 98a0 9f3d d860 dd3d fcd6 ff3d
000000e0: c43b 033d b445 66bd e0d2 f4bc 6473 f13d
000000f0: 2082 bbbb 904e ab3c 8cc2 403d 385b dd3c
00000100: 6c46 df3d 0a96 ecbd 407e dfbd 7c38 71bd
00000110: 5412 9e3d ce8f d7bd b82e f83c 70cc 11bd
00000120: 8a15 b4bd c818 d7bd 72a1 ca3d c81a 2b3d
00000130: 646c 873d b0dc 483c 0064 ecb9 dccd 033d
00000140: 481b f73c 5455 44bd 827d d3bd c0ac fabd
00000150: fc77 353d 60be e73b e024 f5bd 2ccb 1dbd
00000160: 84ad 193d 7cbc 703d a865 55bd 1c65 a83d
00000170: 84cc 3dbd 04c8 33bd d668 cc3d 9ea7 db3d
00000180: b0e5 b3bd b801 23bd c81d 913c 06db 8d3d
00000190: 88b0 c8bc 3060 07bd fe38 efbd 0eeb b13d
000001a0: 445a 70bd 6298 983d 7a56 a63d 702c 743d
000001b0: 9247 a23d 4096 aa3d 8055 ae3c 8016 613d
000001c0: 8046 87bd ec5d 973d 3020 f93c a0ca e7bd
000001d0: 0080 93b6 c20e 83bd 0087 f9bb ee4e b93d
000001e0: deb5 b83d ca71 e3bd dccd dfbd ce02 8b3d
000001f0: 7050 0f3c 5222 cebd 2e1b a0bd 484b d43d
00000200: b016 c93d 44b3 53bd 00d3 e83d 5683 da3d
00000210: 08f9 603d e8e8 ab3c 3804 8a3d 08e5 c83d
00000220: 3cae 6d3d 081d 933d 8403 de3d 362a d6bd
00000230: 2e23 80bd 2040 66bc 4401 27bd 386d c6bd
00000240: dc75 31bd 0c95 413d a077 e8bd 368e a8bd
00000250: c8f7 273d 285a c8bd 6252 80bd fc95 02bd
00000260: a8d8 523d 0cc5 883d dc23 88bd 7ea0 cbbd
00000270: d8f6 6bbd aab9 d73d 002c e1b9 a442 2bbd
00000280: 5848 be3d 462b ac3d a45b b03d aa31 80bd
00000290: 801d 48bd 8463 253d 184e ae3d d6ab 9c3d
000002a0: 7834 56bd 7469 cc3d e051 07bc 8a97 8ebd
000002b0: e8a8 8dbd 96bd 883d ae0c 83bd 90e5 1bbc
000002c0: 9834 073d f0ff 19bc 508a 5dbd 6445 07bd
000002d0: eab9 a8bd 80fe b9bb 2e1f bf3d 24b9 2bbd
000002e0: 76f7 ffbd 6a6a ca3d ead3 c43d 3c50 da3d
000002f0: dce7 dcbd 4818 853d d048 04bc 00e8 68ba
00000300: 7ca6 d0bd f27b f0bd f0dd 0d3d 4e62 df3d
00000310: 9e0e a03d 2ccd 993d 705b 36bc 2c89 5bbd
00000320: 52c0 9b3d 7052 95bd 0017 febb ca3e 853d
00000330: 1037 523d c01c bd3c 9cf1 acbd f851 36bd
00000340: d844 6e3d 0ce9 9d3d e8ff d03c 828b f9bd
00000350: 64df 56bd 64cc dabd d831 a5bc cc66 cdbd
00000360: 0ae1 f9bd c000 e63d 2eee f5bd 48b2 81bd
00000370: 2462 e1bd 5867 403d 98a2 2e3d ec7e 733d
00000380: dc55 8d3d f876 9f3d aa22 96bd a0b1 9cbc
00000390: 5c63 4fbd 741e e03d 7653 bc3d 0008 e4bc
000003a0: 8030 913a c0e2 d6bb dc51 013d d2ae 9cbd
000003b0: 2c20 433d 44e8 24bd c02a f1bd 3eb6 a1bd
000003c0: c6d9 d0bd 6269 c3bd 96ef 963d 3026 843d
000003d0: c05b ef3d e08b c63c 9c3c 0ebd 0ce5 44bd
000003e0: c829 a2bc 68e4 bbbd a075 6bbc d4c9 5fbd
000003f0: e83f 9b3d e8e7 823c 0816 f73c e205 c6bd
0.10734689 0.03845553 -0.049614012 -0.10884641 -0.025293022 0.08155389 0.116257 0.098394975
-0.09800975 -0.04570189 -0.023671761 -0.12157877 0.09468903 -0.03404823 -0.0137313455 -0.07387772
0.036176115 -0.05339217 0.09735151 0.10325837 0.0025982559 0.07788837 0.0016880482 -0.09951386
0.07848807 -0.038540214 0.09042643 0.11868316 -0.1137788 0.054699823 0.08112334 0.031759024
0.049570426 -0.037846655 0.09542523 -0.09206681 0.063156605 -0.06835431 -0.09613226 -0.07376477
0.057904646 -0.00016082823 0.038377285 -0.047623336 -0.015887156 0.026235789 -0.031138882 0.029873118
-0.08799215 0.038748056 0.050078347 0.10214785 0.043449864 0.07794303 0.10809487 0.12492177
0.03203942 -0.056218818 -0.02988571 0.11789587 -0.005722299 0.020911485 0.047060534 0.027021036
0.10902104 -0.11552055 -0.10912752 -0.05889176 0.077183396 -0.105254754 0.030295715 -0.035595357
-0.08793171 -0.105027735 0.098940745 0.041773587 0.06612471 0.012259647 -0.00045087934 0.032178745
0.030164376 -0.047932938 -0.10326673 -0.12239981 0.04430388 0.007072255 -0.11969924 -0.038523838
0.037518993 0.058773503 -0.0520989 0.0822241 -0.04633762 -0.04389192 0.09980933 0.1072533
-0.08784044 -0.03979656 0.017714396 0.06926541 -0.02449824 -0.033050716 -0.11680792 0.08687411
-0.058679834 0.0745094 0.08121963 0.05961269 0.07923807 0.08329439 0.021281004 0.0549531
-0.06605244 0.07390961 0.030410856 -0.113179445 -4.3958426e-06 -0.06399299 -0.00761497 0.09048258
0.090190634 -0.11105688 -0.109279364 0.06787644 0.008747205 -0.1006514 -0.07817684 0.10365921
0.098187804 -0.051684633 0.1136837 0.106695816 0.054924995 0.020985082 0.06739086 0.09809309
0.05802749 0.07183272 0.10840514 -0.1045727 -0.0625671 -0.0140533745 -0.04077269 -0.096888006
-0.04332529 0.047261283 -0.11350942 -0.082302496 0.041007787 -0.09782821 -0.06265713 -0.031881317
0.05147615 0.06678209 -0.06647465 -0.09942721 -0.057608455 0.105334595 -0.00042948127 -0.0418116
0.09291142 0.08406691 0.08611229 -0.06259473 -0.04885626 0.04037811 0.08510989 0.076499626
-0.05229613 0.09981051 -0.008259267 -0.069624975 -0.06916982 0.06676786 -0.06398903 -0.009515181
0.03300914 -0.009399399 -0.054086983 -0.03302516 -0.08238585 -0.0056760907 0.09332119 -0.04192461
-0.12498371 0.09883578 0.09610732 0.10659835 -0.10786411 0.06498772 -0.0080740005 -0.00088846684
-0.101880044 -0.11742391 0.034635484 0.10907422 0.07815288 0.075098366 -0.011130199 -0.053597614
0.076050416 -0.07291114 -0.0077542067 0.06506117 0.051322043 0.023084998 -0.08444521 -0.044511765
0.058171123 0.07710466 0.02551265 -0.12184812 -0.052459136 -0.10683516 -0.020165369 -0.100293726
-0.12201126 0.11230612 -0.1200832 -0.063328326 -0.11005047 0.046973556 0.04263553 0.059447214
0.06901142 0.07786363 -0.073308304 -0.019127667 -0.050631866 0.109433085 0.091956064 -0.027835846
0.0011077076 -0.0065577924 0.031572208 -0.07650532 0.047638103 -0.04026057 -0.11775732 -0.07896088
-0.10197787 -0.095415846 0.07369916 0.06452596 0.11687422 0.02423662 -0.03472577 -0.04807
-0.019795313 -0.091744244 -0.014371306 -0.054635838 0.075805485 0.015979722 0.030161873 -0.09669091

encoder_layers.linear2.bias f4 [32]
00000000: b03f 85bc 7064 09bc 8424 2d3d e038 e73c
00000010: b032 b4bc 60f2 a33d 680e 48bd b83d 6a3d
00000020: 76c6 b8bd 325c f23d 647b ae3d b823 11bd
00000030: f82c 463d c6e7 dabd ac3b 4e3d be63 99bd
00000040: d2f1 8b3d e803 893c 2cc5 6fbd 16f8 83bd
00000050: 2c5c 9f3d f0e9 41bc 68dc 173d 7861 1fbd
00000060: e818 edbc e4b9 f1bd 000a a9b9 70db 92bd
00000070: 70c2 15bd b890 fbbd 0030 f239 48e1 d4bc
-0.01626572 -0.008385763 0.042271152 0.028225362 -0.021996826 0.08005214 -0.048841864 0.057187766
-0.090222284 0.11833991 0.08519629 -0.035434455 0.04838273 -0.106887385 0.050349876 -0.074897274
0.06833233 0.016725495 -0.058537647 -0.06443803 0.07781252 -0.01183556 0.03707543 -0.038911313
-0.02894254 -0.11803034 -0.00032241642 -0.07170761 -0.036562383 -0.12283462 0.000461936 -0.025986329

encoder_layers.norm1.weight f4 [32]
00000000: 0000 803f 0000 803f 0000 803f 0000 803f
00000010: 0000 803f 0000 803f 0000 803f 0000 803f
00000020: 0000 803f 0000 803f 0000 803f 0000 803f
00000030: 0000 803f 0000 803f 0000 803f 0000 803f
00000040: 0000 803f 0000 803f 0000 803f 0000 803f
00000050: 0000 803f 0000 803f 0000 803f 0000 803f
00000060: 0000 803f 0000 803f 0000 803f 0000 803f
00000070: 0000 803f 0000 803f 0000 803f 0000 803f
1.0 1.0 1.0 1.0 1.0 1.0 1.0 1.0
1.0 1.0 1.0 1.0 1.0 1.0 1.0 1.0
1.0 1.0 1.0 1.0 1.0 1.0 1.0 1.0
1.0 1.0 1.0 1.0 1.0 1.0 1.0 1.0

encoder_layers.norm1.bias f4 [32]
00000000: 0000 0000 0000 0000 0000 0000 0000 0000
00000010: 0000 0000 0000 0000 0000 0000 0000 0000
00000020: 0000 0000 0000 0000 0000 0000 0000 0000
00000030: 0000 0000 0000 0000 0000 0000 0000 0000
00000040: 0000 0000 0000 0000 0000 0000 0000 0000
00000050: 0000 0000 0000 0000 0000 0000 0000 0000
00000060: 0000 0000 0000 0000 0000 0000 0000 0000
00000070: 0000 0000 0000 0000 0000 0000 0000 0000
0.0 0.0 0.0 0.0 0.0 0.0 0.0 0.0
0.0 0.0 0.0 0.0 0.0 0.0 0.0 0.0
0.0 0.0 0.0 0.0 0.0 0.0 0.0 0.0
0.0 0.0 0.0 0.0 0.0 0.0 0.0 0.0

encoder_layers.norm2.weight f4 [32]
00000000: 0000 803f 0000 803f 0000 803f 0000 803f
00000010: 0000 803f 0000 803f 0000 803f 0000 803f
00000020: 0000 803f 0000 803f 0000 803f 0000 803f
00000030: 0000 803f 0000 803f 0000 803f 0000 803f
00000040: 0000 803f 0000 803f 0000 803f 0000 803f
00000050: 0000 803f 0000 803f 0000 803f 0000 803f
00000060: 0000 803f 0000 803f 0000 803f 0000 803f
00000070: 0000 803f 0000 803f 0000 803f 0000 803f
1.0 1.0 1.0 1.0 1.0 1.0 1.0 1.0
1.0 1.0 1.0 1.0 1.0 1.0 1.0 1.0
1.0 1.0 1.0 1.0 1.0 1.0 1.0 1.0
1.0 1.0 1.0 1.0 1.0 1.0 1.0 1.0

encoder_layers.norm2.bias f4 [32]
00000000: 0000 0000 0000 0000 0000 0000 0000 0000
00000010: 0000 0000 0000 0000 0000 0000 0000 0000
00000020: 0000 0000 0000 0000 0000 0000 0000 0000
00000030: 0000 0000 0000 0000 0000 0000 0000 0000
00000040: 0000 0000 0000 0000 0000 0000 0000 0000
00000050: 0000 0000 0000 0000 0000 0000 0000 0000
00000060: 0000 0000 0000 0000 0000 0000 0000 0000
00000070: 0000 0000 0000 0000 0000 0000 0000 0000
0.0 0.0 0.0 0.0 0.0 0.0 0.0 0.0
0.0 0.0 0.0 0.0 0.0 0.0 0.0 0.0
0.0 0.0 0.0 0.0 0.0 0.0 0.0 0.0
0.0 0.0 0.0 0.0 0.0 0.0 0.0 0.0

transformer_encoder.layers.0.self_attn.in_proj_weight f4 [96, 32]
00000000: c4f0 d73d d5a4 ea3b 513a 14be 1d37 bcbc
00000010: e393 0ebe eff7 23be e8a0 e0bb d56a 4a3e
00000020: 5c5d 4d3c 540a edbb 57e6 203e 4be8 1c3e
00000030: b2f6 e53d 9f61 dc3d 0d2b 6a3d 3cf4 9abd
00000040: 646d e4bd ad43 b63c f6ab 0b3e ec82 12be
00000050: 98fe c93a c819 76bc 2c4c f33d fa52 1dbe
00000060: 3fdd 5ebe 2f59 bebc b496 04be 3811 49be
00000070: 0407 0c3e e506 3b3c 7796 73bd 7e0c 24bd
00000080: 1028 21be 62a7 e13d 43f0 953d e4df 103d
00000090: a821 43be 6bb7 babb 6af9 3abc 45da 0cbe
000000a0: 1cb7 60be 8b49 de3d e381 63bd 3c91 853d
000000b0: 83cf eebc 56dd e5bd dc37 a23c 30d5 27bc
000000c0: 1bce a9bd 285b d03c 08f7 273e 5446 a03d
000000d0: 73d7 2e3d 644e a53c 7fa8 2f3e 58ff b1bd
000000e0: ebbb b43a 9f22 c83d ca85 013e 3610 c73d
000000f0: 7120 1a3e 26e3 adbd 99bc a6bd 8f70 3bbd
00000100: 964b 063e 4f7a 303e 1752 e53d 5528 eb3d
00000110: 073f bdbd 45ff c43d cd27 3b3e 061c 84bc
00000120: 8432 4cbd e08e 1abe f24e cb3c 2a65 373e
00000130: 2cdb 8dbd 9c2d 093d 917e 2a3e 3b90 4a3d
00000140: 2fef a7bd baf7 1a3d bd0e 313e 9633 82bd
00000150: ffbd 4f3e fc71 113e 26a5 c93d 1c39 323e
00000160: 18cd b13d 603f 28be 3ea6 65bc 9cdf a63b
00000170: b00e 25bd b859 cabd dcf8 59be e6ff cd3d
00000180: 9f70 cb3d 22cd c13d 9198 533e 5074 1e3c
00000190: 9039 393e dc5b 21bd bc9f 023e 520d 303c
000001a0: 7d05 103e d870 f7bd 4244 1e3e 1aaf a63d
000001b0: b513 a9bb 8022 29be 4e6a e6bd 9347 8fbd
000001c0: 3e81 32be 764c 06be 9647 87bd 3aae 373d
000001d0: 17eb 80bd 93c0 bbbd 8561 533e a055 1039
000001e0: 3278 a03c 0cb2 4e3e 1759 77bd a1ba debd
000001f0: b877 373e e994 c13c 9075 ac3d b667 4f3e
00000200: efd8 88bd 65dc 23bd 41a5 35be 8af2 2abe
00000210: 8e4d ec3d 4999 423e 3ddb 2e3e 2bc2 aebd
00000220: 0bc1 bbbc 467c 493d 5d2f 2bbe 0844 a23c
00000230: 3312 e03c 8072 363c b61a debd 82c5 be3d
00000240: ba23 2f3e 6c88 743b c6ca b0bd c9ed 6e3d
00000250: 4e97 783d 7530 e0bd 2d6a 4e3e fdbb f6bd
00000260: fff6 18be e272 1c3e e00e 39be 00d5 c43d
00000270: 4351 13be 5429 08be 8803 23bd 3541 f5bd
00000280: 91f2 7bbb 8bc0 043d f53b 0ebe 4908 51be
00000290: d11e 37be 6d08 44be 9e09 503e 8a6d 303d
000002a0: b963 cabc 2635 563e 1600 a73d 26e1 7abd
000002b0: a894 0bbe d366 3bbe 59cf 583e 3c0d 673c
000002c0: eabc a33d eced 51be 7bf8 4f3c abe1 7c3d
000002d0: 2d84 9a3d 80c0 bf3d 82a2 653d eddc a2bd
000002e0: 5f53 cf3d 47c0 debc 2a09 22be c3fd d43c
000002f0: 3574 9f3c 3393 cdbd 79c5 bd3d f1ae 0ebe
00000300: 34dd 18be e377 e83d 9f27 f83d e70f 38bd
00000310: 005a fd3d 1cfe 573e 76b3 2dbe 2a24 e63d
00000320: 41c8 0bbe ccd0 25bd 9bbc 193e b0c8 103e
00000330: 23f2 d33d 623b 36be aa92 493e 5ff1 babd
00000340: e295 2eba e113 d63d 2544 b8bc fcad 3c3e
00000350: 7198 3cbe c73d c53c 4056 c0bd 4ef0 06be
00000360: 2ba9 bcbb 6c40 2e3e 62b4 263e eabb 31be
00000370: 070d 30be 8323 043e c505 4bbe c0d4 823d
00000380: 23c9 933d 5154 373e f910 78bb f04b 12be
00000390: 20fe 26be 1e6f 71bd 2876 0bbc 79ed 07be
000003a0: 1ebe 0e3e f232 313d f6be 9d3d 9942 303e
000003b0: 7352 23be 9256 e93d 06c4 9fbd 5657 ba3d
000003c0: 2cfb 083e 8ea7 1f3e af70 07be ab86 2cbd
000003d0: 37fe 193c 204f 0abe eae0 5e3e e733 cbbc
000003e0: 603f e73d ce20 1fbe 8dc2 8cbd 8bfd e03d
000003f0: 1fb5 55be ade7 5dbe 11ed a9bd 85f8 053c
0.10543969 0.007160763 -0.14475371 -0.022975499 -0.13923602 -0.16012548 -0.006855119 0.19767316
0.012534466 -0.007233897 0.15712868 0.15322988 0.11228694 0.10760807 0.057169963 -0.07566115
-0.11153677 0.022249067 0.13639817 -0.14307755 0.0015410958 -0.015020795 0.11879763 -0.15363684
-0.21764086 -0.023235885 -0.12948114 -0.19635475 0.13674551 0.011415218 -0.059469666 -0.040050976
-0.15737939 0.11018254 0.07321217 0.03536977 -0.19055808 -0.0056981347 -0.011412004 -0.13755138
-0.2194485 0.10853871 -0.05554379 0.06521842 -0.029151684 -0.11223857 0.019802026 -0.010243699
-0.082912646 0.025434092 0.16402829 0.07825914 0.042685937 0.020178981 0.1715412 -0.08691281
0.0013788914 0.097722284 0.12648693 0.09719889 0.15051438 -0.08490591 -0.08141441 -0.04576164
0.13114771 0.17234157 0.11197298 0.11482302 -0.09240537 0.09619001 0.18276902 -0.016126644
-0.049852863 -0.15093565 0.024817917 0.17909685 -0.06926569 0.033490762 0.16649844 0.049453955
-0.081999175 0.037833907 0.17290778 -0.063574955 0.20287322 0.14203638 0.09845953 0.17404598
0.08681697 -0.16430426 -0.014016686 0.0050925743 -0.04029721 -0.09880394 -0.21286339 0.100585744
0.0993359 0.09462954 0.20663668 0.009671286 0.18088365 -0.039394245 0.12756246 0.010745363
0.14064594 -0.1208207 0.15455726 0.08138867 -0.00515982 -0.16517067 -0.11250745 -0.069960736
-0.17432114 -0.13115105 -0.06605451 0.04484389 -0.0629484 -0.0916759 0.2064267 0.00013764808
0.019588564 0.20185107 -0.060387697 -0.108754404 0.17916763 0.023630576 0.08420861 0.20254406
-0.06682002 -0.040005106 -0.1773882 -0.16694084 0.1153823 0.19003786 0.1707582 -0.08533128
-0.022919198 0.049190782 -0.16717286 0.01980783 0.027352428 0.011135697 -0.108449385 0.093150154
0.17103472 0.003731276 -0.08632426 0.05833224 0.06069117 -0.109467424 0.2015769 -0.12047575
-0.14937972 0.152782 -0.1807208 0.09610939 -0.14386468 -0.13297015 -0.03979829 -0.11975328
-0.0038444141 0.032410186 -0.1389006 -0.20413317 -0.1788285 -0.19143839 0.20316169 0.043073215
-0.024705755 0.20918712 0.08154313 -0.061249875 -0.13630927 -0.18300943 0.21172847 0.014102276
0.07995017 -0.20500916 0.01269352 0.06173865 0.07544742 0.09362888 0.056063183 -0.079522945
0.10123324 -0.027191294 -0.15823808 0.02599991 0.019464592 -0.10037842 0.092661805 -0.13933922
-0.14928132 0.113509916 0.12116932 -0.04493704 0.12370682 0.21093029 -0.1696299 0.112373665
-0.1365061 -0.040482327 0.15013354 0.14139056 0.10348918 -0.1779609 0.19684854 -0.09128069
-0.00066599075 0.1045301 -0.022493431 0.18425745 -0.18417527 0.02407731 -0.09391451 -0.13177606
-0.005757471 0.17016762 0.16279748 -0.1735684 -0.1719247 0.12904172 -0.1982642 0.06388235
0.07216098 0.17903258 -0.0037851913 -0.1428678 -0.16307878 -0.05894386 -0.008512057 -0.13274182
0.13939711 0.043261476 0.077024385 0.17212905 -0.1594942 0.11393465 -0.078010604 0.09098689
0.13377064 0.15591261 -0.13226579 -0.042120617 0.009398988 -0.13506746 0.21765485 -0.024805022
0.11291385 -0.15539858 -0.06873045 0.109858595 -0.20869873 -0.21670409 -0.0829717 0.008176927

transformer_encoder.layers.0.self_attn.in_proj_bias f4 [96]
00000000: 919d 7fbb 40bd a8bb 0585 e6bb 9ee4 aaba
00000010: 4354 16bc 7cc1 1c3a 10cd 203b 930f 52bb
00000020: 0119 c53b e955 343a e2ae d1b8 5f79 68bc
00000030: 3197 1cbc d709 36bb 9556 c8ba d564 9c3b
00000040: 1149 563a 4260 1f3c 2ccd 18bc 2f66 80bc
00000050: dd31 fd3b 4fcc 31ba e733 8e3b 67cc 7cbb
00000060: 7f7a 90bb 1571 10bc 082e cfba 3156 97bb
00000070: c547 a2bb f6ea e1bb cbc8 37bc b971 2f3c
00000080: 76da c139 899d d7ba 67e9 15bb 5441 7dba
00000090: 476d 0fbb cc91 cb3a 9eb4 fa3a 00d8 05bb
000000a0: 0a8c 61ba 026c 72ba e1c3 4fba e69f 24bb
000000b0: a4e2 20bb afdb 7dba 612a dc3a cc2f e13a
000000c0: 854c caba 5af6 d8ba 5b00 613a 6c13 1e3b
000000d0: b0ce ff3a 8e38 2f3b 54fd 3abb b941 ea39
000000e0: f1d7 07ba c562 c53a c973 073b 4c91 dcb9
000000f0: 7075 bfba e814 04bb 58f6 6e3b 0ee8 b4bb
00000100: f06f 47bb 55a7 b0bb c4ad 25bc 3e97 cc3b
00000110: 980b 0bbb 7a79 1abb fd8d 9b3b ba8d 873b
00000120: 22b5 793b 1e03 993b 4278 0a3c 6d65 a03b
00000130: e20c 983b 9972 9fbb 0849 08bc 59e1 0bbb
00000140: 197a cdbb 986a 06ba ead9 64b9 f26c 1d3b
00000150: 6ad8 fc39 fafb 43ba 9c43 1a3b 1bcd 703a
00000160: 7dd1 d83b 77d5 30bb fbe9 4f3c 5f01 093c
00000170: 24ba fa3b 7449 0f3c b45d 1c3b fdd8 a93b
-0.003900383 -0.0051495135 -0.0070349 -0.0013038104 -0.009175363 0.0005979759 0.002453629 -0.003205274
0.0060149436 0.00068792567 -9.998471e-05 -0.014189093 -0.009557531 -0.002777686 -0.0015284593 0.0047727623
0.000817434 0.0097275395 -0.009326261 -0.015673725 0.0077268914 -0.00067824585 0.0043396833 -0.0038573982
-0.004409134 -0.008816023 -0.0015806565 -0.004618429 -0.0049524033 -0.0068944646 -0.011217306 0.010708266
0.00036974595 -0.0016450147 -0.0022874714 -0.0009660919 -0.0021885203 0.0015531122 0.0019127314 -0.0020422935
-0.00086039363 -0.0009247662 -0.00079256116 -0.002511972 -0.002454915 -0.00096839195 0.0016797298 0.0017180382
-0.0015434182 -0.0016552911 0.0008583122 0.0024120463 0.0019516554 0.002673659 -0.0028532343 0.00044680925
-0.0005182019 0.0015059343 0.0020668379 -0.00042069925 -0.0014607143 -0.0020154063 0.003646275 -0.005520827
-0.003043171 -0.0053910413 -0.01011223 0.0062436154 -0.0021216627 -0.002357094 0.004747151 0.004136768
0.0038102348 0.004669561 0.008451523 0.0048949034 0.0046402076 -0.004865956 -0.008318193 -0.0021344034
-0.0062706587 -0.0005127578 -0.00021824954 0.0024021235 0.00048226427 -0.0007476207 0.0023538833 0.00091858365
0.00661677 -0.0026982704 0.012690063 0.008362143 0.007651584 0.00874554 0.0023859562 0.0051833377
